model checkpoints/test_lstm.pth (torch, 63511 bytes, 6 tensors)

lstm.weight_ih_l0 f4 [56, 224]
0.13398775 -0.02271308 0.23477778 0.11291283 -0.10368487 0.011195958 0.24881294 0.21608537
-0.06861378 0.17157707 -0.032944605 0.16070378 0.1668208 -0.0058718026 -0.16595966 0.22002381
0.19678116 -0.13745739 -0.16992337 0.17973903 -0.061828107 0.19896454 -0.01595983 -0.2304313
-0.14869203 0.11677846 -0.19836071 -0.10709779 -0.15822473 0.22928879 0.12055203 -0.026055887
-0.11944771 0.10727143 -0.0013184845 0.20497444 -0.10260281 0.20951435 0.09463346 -0.22260521
-0.13693126 -0.020201132 -0.088273644 0.1975393 -0.24201229 -0.23774427 -0.15377077 -0.02427183
0.091991425 0.20222834 -0.039734393 -0.23863746 0.2347891 -0.2026484 0.034204185 0.19466782
-0.0037519634 -0.23214547 0.011013925 0.016130984 0.10577729 -0.22671811 0.10416505 -0.0887021
0.06670201 -0.048838794 0.26683453 0.07746971 0.14348152 0.23928592 -0.16572092 -0.05905603
0.16769525 -0.22942345 -0.19029608 0.14039466 -0.19962665 0.20132029 0.03775227 0.24648663
-0.06489785 0.10916224 -0.036219105 -0.101124704 -0.24105301 -0.25297976 0.113895535 -0.03574437
-0.03782454 0.17466599 0.18770641 0.033676326 0.038098276 -0.16272819 0.05794412 -0.13428412
0.19471088 0.1565072 0.035354465 -0.035469353 0.17307311 -0.18171813 0.20543495 0.14476472
-0.0046513677 -0.12162961 -0.035384372 -0.22459869 -0.027337715 0.1419175 0.22147769 0.18358603
-0.03940314 -0.036212772 -0.17457074 0.08566937 0.058192402 -0.22889665 0.099641144 0.17951414
-0.2174912 0.16092902 0.18341649 0.20094806 -0.20995946 -0.24883735 -0.016100436 -0.1759833
0.20652306 0.11403772 0.14664859 -0.067316696 -0.08010772 0.13252294 0.14038399 -0.15497775
0.07306516 0.21203497 -0.042863682 0.06993547 -0.19304915 -0.17133227 -0.16048062 0.2449443
0.22017115 -0.26623127 -0.10422857 0.23586628 -0.07823151 -0.18200079 -0.11729051 -0.14570686
0.08262104 -0.18013242 0.18463963 -0.13433775 0.030219823 -0.12875295 -0.15176016 0.20338681
-0.20647113 -0.101419345 -0.020986795 -0.057232037 0.03291887 0.25692436 0.16138402 0.07207486
-0.00026351213 -0.21566117 0.18653566 -0.16609378 -0.2485833 -0.11539331 -0.20335217 0.23556831
0.059752762 0.24263391 -0.25731412 0.0037276149 0.14498949 -0.2364445 -0.178521 0.101361215
0.17213568 0.24136797 0.07655445 -0.029615805 0.26630422 0.107649565 -0.0025003552 -0.05941005
0.005850166 0.00859803 0.2088477 -0.017327711 -0.23131227 -0.061921 0.14383352 -0.25790146
-0.18674296 0.038052887 0.025557458 0.24432364 0.015122712 -0.22833772 -0.07352477 0.17091551
0.10032126 0.23507705 0.25368395 -0.07489817 -0.115966186 0.04169333 0.22956058 0.13712645
0.05631107 -0.06072715 0.0829747 0.2650045 0.26555696 -0.23660693 0.05066204 0.23781404
-0.039748505 -0.23662066 0.1547325 -0.09025201 0.11793885 -0.21424475 -0.26299733 0.023816496
-0.21588272 -0.21056715 -0.04077503 -0.18208034 0.024197698 -0.019553795 0.051745713 0.088638574
-0.16434604 -0.076228514 0.20285055 0.019642502 -4.8547983e-05 0.030672282 -0.16094357 0.081225544
0.05680877 -0.15914601 -0.12961002 -0.013028413 -0.1699309 -0.1925931 -0.04053901 0.16080895
00000000: 1634 093e c810 babc 9669 703e d83e e73d
00000010: bc58 d4bd 406f 373c d2c8 7e3e 7c45 5d3e
00000020: 6285 8cbd e6b1 2f3e ecf0 06bd 888f 243e
00000030: 12d3 2a3e 4068 c0bb 54f1 29be ec4d 613e
00000040: 0081 493e a1c1 0cbe 6400 2ebe 820d 383e
00000050: 783f 7dbd 5cbd 4b3e 30be 82bc 2ff6 6bbe
00000060: b942 18be 8c29 ef3d 121f 4bbe 1656 dbbd
00000070: aa05 22be aeca 6a3e fce3 f63d 2873 d5bc
00000080: 00a1 f4bd 20b1 db3d 00d1 acba d2e4 513e
00000090: 6c21 d2bd ee8a 563e 30cf c13d 9ff2 63be
000000a0: b537 0cbe d87c a5bc d0c8 b4bd be47 4a3e
000000b0: 12d2 77be 3c73 73be 1676 1dbe b8d5 c6bc
000000c0: 0066 bc3d f214 4f3e 88c0 22bd 615d 74be
000000d0: 8e6c 703e 1083 4fbe b019 0c3d 0057 473e
000000e0: 80e3 75bb 8bb7 6dbe c073 343c 2025 843c
000000f0: c4a1 d83d cb28 68be 7c54 d53d 72a9 b5bd
00000100: 109b 883d 300b 48bd 899e 883e 70a8 9e3d
00000110: d2ec 123e 5e07 753e bfb2 29be bce4 71bd
00000120: 4eb8 2b3e fbed 6abe fadc 42be 9ec3 0f3e
00000130: ee6a 4cbe e826 4e3e 20a2 1a3d fe66 7c3e
00000140: 2ae9 84bd 7490 df3d 7c5a 14bd 781a cfbd
00000150: 9ad6 76be 9086 81be 1042 e93d b068 12bd
00000160: e8ed 1abd a4db 323e 1c36 403e 30f0 093d
00000170: f00c 1c3d 38a2 26be d056 6d3d c781 09be
00000180: 4a62 473e 6c43 203e d8cf 103d 5048 11bd
00000190: 143a 313e 5114 3abe 8a5d 523e 343d 143e
000001a0: 806a 98bb f218 f9bd 34ef 10bd 33fd 65be
000001b0: 58f3 dfbc d252 113e 0ccb 623e fafd 3b3e
000001c0: 3065 21bd d853 14bd acc2 32be 6c73 af3d
000001d0: 285b 6e3d e263 6abe a810 cc3d 8ed2 373e
000001e0: 03b6 5ebe 94ca 243e 88d1 3b3e 54c5 4d3e
000001f0: 9dff 56be 38cf 7ebe 10e5 83bc f734 34be
00000200: c87a 533e 9c8c e93d 0c2b 163e 56dd 89bd
00000210: 840f a4bd 18b4 073e d2c0 0f3e 7db2 1ebe
00000220: 30a3 953d b21f 593e d491 2fbd 543a 8f3d
00000230: adae 45be ba71 2fbe 0855 24be aed2 7a3e
00000240: 8c74 613e 774f 88be ca75 d5bd ee86 713e
00000250: d837 a0bd 6a5e 3abe 0236 f0bd 2e34 15be
00000260: 3835 a93d a274 38be 2c12 3d3e d68f 09be
00000270: 908f f73c d0d7 03be 0467 1bbe a244 503e
00000280: 2b6d 53be f2b4 cfbd 80ec abbc 246c 6abd
00000290: f0d5 063d 978b 833e da41 253e fc9b 933d
000002a0: 0028 8ab9 48d6 5cbe 3403 3f3e 7d14 2abe
000002b0: 9f8c 7ebe 5453 ecbd 8d3b 50be d238 713e
000002c0: 50bf 743d 0675 783e adbe 83be 004b 743b
000002d0: 2078 143e 821e 72be 36ce 36be 7896 cf3d
000002e0: 5644 303e 2a29 773e 94c8 9c3d d89c f2bc
000002f0: 0759 883e 6077 dc3d 00dd 23bb f457 73bd
00000300: c0b2 bf3b c0de 0c3c 2cdc 553e d8f2 8dbc
00000310: 20dd 6cbe e0a0 7dbd 1849 133e a90b 84be
00000320: 8c39 3fbe 58dd 1b3d e05d d13c fa2f 7a3e
00000330: 40c5 773c 5dd1 69be 2894 96bd 7a04 2f3e
00000340: 3c75 cd3d 0ab8 703e dde2 813e 3664 99bd
00000350: ae7f edbd a0c6 2a3d ee11 6b3e e06a 0c3e
00000360: 70a6 663d 08bd 78bd a4ee a93d abae 873e
00000370: 15f7 873e 1649 72be 0083 4f3d 8685 733e
00000380: 54cf 22bd b04c 72be 3272 1e3e 0cd6 b8bd
00000390: ec89 f13d fa62 5bbe 96a7 86be d01a c33c
000003a0: 5c10 5dbe ea9e 57be b803 27bd 4573 3abe
000003b0: 403a c63c 482f a0bc 50f3 533d 2488 b53d
000003c0: 544a 28be b21d 9cbd 0eb8 4f3e 50e9 a03c
000003d0: 00a0 4bb8 7044 fb3c 64ce 24be 9459 a63d
000003e0: 50b0 683d 2cf7 22be 7db8 04be 2075 55bc
000003f0: 5e02 2ebe 2037 45be 3c0c 26bd 1aab 243e

lstm.weight_hh_l0 f4 [56, 14]
0.2456859 -0.10089518 -0.01405254 -0.03927681 -0.07287648 0.045752168 0.2633867 -0.06163828
-0.23011293 -0.24095696 -0.23598878 -0.2539384 0.08786425 -0.1655978 -0.09054074 0.23403147
-0.10145423 0.005761802 0.20351347 -0.14032766 -0.23401877 -0.04694715 0.16271469 -0.108036086
-0.16845393 -0.17508432 -0.0026267767 -0.17664424 0.20990866 -0.2608153 0.046862632 0.26479772
0.022669464 0.22909796 0.0186432 -0.02827634 0.18275431 0.032404274 -0.25477618 -0.17757687
-0.24605766 0.22735435 -0.24649118 0.05310619 0.13423443 0.118647605 0.07589921 0.14495096
-0.15183216 0.19650283 -0.24140173 -0.040823486 -0.2566633 0.22983116 0.25057045 0.24505433
-0.23752637 0.20033672 0.12727949 0.106233425 -0.044639274 -0.09986477 0.02763361 -0.2613717
-0.06354685 0.23172696 0.059557408 -7.0780516e-05 -0.18720801 0.010847628 -0.065683484 -0.24186036
0.2507961 0.110497706 -0.13035786 0.03217991 -0.17675915 -0.24310952 -0.031828985 -0.19802983
0.0056162775 -0.09556776 -0.20771538 -0.03407404 0.10730544 0.05373761 -0.0008765757 -0.14084475
0.18956739 0.13329631 0.08057171 0.13048965 -0.25761873 0.24236372 0.0067593157 0.12446067
0.15417859 -0.030775279 0.111299336 0.21223444 -0.17636666 0.011269266 0.15889803 0.14736569
0.18426242 0.05695325 0.13323957 -0.00029805675 -0.04816468 0.023355275 0.015390694 0.089487374
0.1315074 0.20040473 -0.0531853 -0.23232873 -0.15797798 0.1255256 0.21319437 0.1786696
0.09523487 -0.14614311 -0.1372525 0.13341075 -0.09531531 -0.123752296 -0.08213402 -0.0011141002
0.0401237 -0.12897469 -0.10321666 -0.07246126 0.0097 0.021280795 0.06437293 0.14559418
-0.114813104 0.25903675 0.116375685 -0.21117741 -0.20918187 0.05198157 -0.06977542 -0.18977508
-0.23804362 0.18807498 -0.23186558 -0.20786491 0.11415157 -0.22419395 0.014245421 0.106455326
-0.04017651 -0.12244995 -0.24221581 0.1757712 0.1309556 0.015242159 -0.03118506 -0.20651838
-0.0860658 0.0559766 0.07267326 0.21096858 0.1001153 -0.16593729 0.082209766 0.04673159
-0.020392388 0.09138346 -0.12959978 0.23680589 -0.035857916 0.18362164 0.11035219 -0.17842896
0.18401948 -0.05478576 0.233215 0.15170574 -0.09577234 -0.21124995 0.19092712 0.17823917
0.0102202 -0.020333678 -0.25536254 -0.1249904 0.16441467 0.22722605 0.11860171 0.036649883
0.02727434 0.024872154 -0.1759927 -0.2655956 -0.15506212 -0.26241517 0.22549367 0.1640073
-0.036437124 -0.1589587 -0.08131716 0.002730459 0.23757854 -0.19553643 -0.16690701 0.10878366
0.014989674 0.1480757 -0.13212128 0.21573192 0.048760355 -0.04155633 0.054359317 0.17387035
0.10113612 0.17524207 0.21412739 -0.10499464 -0.17390323 -0.13809465 -0.10786125 -0.1586997
-0.21876758 0.17237815 0.20422435 0.17810315 0.09719896 0.15632007 -0.115591064 -0.08047488
-0.24603271 0.0048181945 -0.11537655 -0.07912055 -0.024354089 -0.25896177 0.18086153 0.060725242
-0.19223651 0.16364798 0.26245043 0.12681404 0.21442154 0.263921 -0.005964577 -0.041126322
-0.124592096 0.02018109 0.11321801 -0.11392166 -0.036664322 0.15885183 0.1987994 -0.047387317
00000000: 1695 7b3e 22a2 cebd a03c 66bc b8e0 20bd
00000010: 4440 95bd a066 3b3d 9fda 863e 6c78 7cbd
00000020: b9a2 6bbe 6cbd 76be 0ba7 71be 3704 82be
00000030: 2cf2 b33d 7892 29be 6c6d b9bd f2a5 6f3e
00000040: 3cc7 cfbd 80cd bc3b d665 503e 0eb2 0fbe
00000050: 9ea2 6fbe a84b 40bd ae9e 263e 0642 ddbd
00000060: 307f 2cbe 4e49 33be 0026 2cbb 3ae2 34be
00000070: 4cf2 563e 9589 85be 08f3 3f3d 9193 873e
00000080: 50b5 b93c a898 6a3e a0b9 983c c8a3 e7bc
00000090: f223 3b3e 58ba 043d 0672 82be b6d6 35be
000000a0: 8af6 7bbe 94cf 683e 2f68 7cbe e085 593d
000000b0: c074 093e 84fd f23d 0c71 9b3d 066e 143e
000000c0: e479 1bbe 0a38 493e 0432 77be 8736 27bd
000000d0: 5f69 83be dc58 6b3e c54a 803e 86ef 7a3e
000000e0: 1d3a 73be 1225 4d3e 8e55 023e e990 d93d
000000f0: acd7 36bd e785 ccbd e15f e23c 83d2 85be
00000100: da24 82bd d549 6d3e 78f2 733d 0070 94b8
00000110: 75b3 3fbe 40ba 313c 1085 86bd 3eaa 77be
00000120: 5968 803e 9f4c e23d 887c 05be 15cf 033d
00000130: 5a00 35be b4f1 78be 1c5f 02bd 55c8 4abe
00000140: c008 b83b 08b9 c3bd 57b3 54be 3891 0bbd
00000150: f4c2 db3d f81b 5c3d 00ca 65ba 9b39 10be
00000160: f41d 423e d47e 083e c802 a53d 149f 053e
00000170: 9ae6 83be 322e 783e 407d dd3b 3ce5 fe3d
00000180: fee0 1d3e 701c fcbc e8f0 e33d fc53 593e
00000190: 7699 34be baa2 383c 2ab6 223e 08e7 163e
000001a0: 4aaf 3c3e d047 693d f46f 083e 8044 9cb9
000001b0: 5448 45bd 9053 bf3c 4029 7c3c 2845 b73d
000001c0: e0a9 063e e636 4d3e d4d8 59bd 95e7 6dbe
000001d0: fbc4 21be c889 003e a04f 5a3e 2af5 363e
000001e0: 800a c33d 8aa6 15be eb8b 0cbe d49c 083e
000001f0: ac34 c3bd d871 fdbd e235 a8bd 0007 92ba
00000200: c058 243d f111 04be 4263 d3bd 9266 94bd
00000210: c0ec 1e3c 1055 ae3c f4d5 833d a416 153e
00000220: 2223 ebbd 77a0 843e 6056 ee3d e43e 58be
00000230: c633 56be a0ea 543d 6ae6 8ebd 6654 42be
00000240: b5c1 73be ba96 403e 2c6e 6dbe 8ada 54be
00000250: 4cc8 e93d 1993 65be a065 693c 4005 da3d
00000260: 2090 24bd 0ac7 fabd 6c07 78be 5efd 333e
00000270: 3a19 063e 40ba 793c d077 ffbc 8e79 53be
00000280: 4443 b0bd b847 653d b8d5 943d 2608 583e
00000290: 4009 cd3d 77eb 29be 985d a83d a069 3f3d
000002a0: f00d a7bc 4027 bb3d ceb5 04be 3e7d 723e
000002b0: c0df 12bd 5007 3c3e 5400 e23d 15b6 36be
000002c0: 9a6f 3c3e 0867 60bd eacf 6e3e c058 1b3e
000002d0: 4a24 c4bd e851 58be 6682 433e 5484 363e
000002e0: a072 273c d092 a6bc e1be 82be f8fa ffbd
000002f0: 525c 283e f2ad 683e 74e5 f23d 301e 163d
00000300: 706e df3c b0c0 cb3c 6e37 34be 25fc 87be
00000310: 9bc8 1ebe 485b 86be d0e7 663e 88f1 273e
00000320: 183f 15bd 12c6 22be 9c89 a6bd 80f1 323b
00000330: ca47 733e b43a 48be ace9 2abe f8c9 de3d
00000340: 4097 753c 28a1 173e cd4a 07be d4e8 5c3e
00000350: f0b8 473d f836 2abd e0a7 5e3d 120b 323e
00000360: 7420 cf3d a872 333e 3644 5b3e 6e07 d7bd
00000370: b013 32be af68 0dbe 5ce6 dcbd 2d82 22be
00000380: 9c04 60be e683 303e 3020 513e ac60 363e
00000390: 4010 c73d 5e12 203e 02bb ecbd 04d0 a4bd
000003a0: 00f0 7bbe f2e1 9d3b 8a4a ecbd f409 a2bd
000003b0: 3a82 c7bc a396 84be c433 393e 08bb 783d
000003c0: a6d9 44be 5693 273e e75f 863e 8adb 013e
000003d0: 5291 5b3e a720 873e 8072 c3bb 1374 28bd
000003e0: 242a ffbd d052 a53c d8de e73d c24f e9bd
000003f0: 542d 16bd 0eaa 223e 1292 4b3e 3419 42bd

lstm.bias_ih_l0 f4 [56]
-0.135356 0.16899994 -0.039388254 0.24853268 0.00588903 0.20405908 0.20729402 0.11817691
0.06056598 -0.14648904 0.17909077 -0.08528946 -0.15071106 -0.25363752 0.019883364 -0.22301264
-0.017383445 -0.2508243 0.021710813 0.18919194 -0.17877248 0.20294824 -0.13134259 0.15391943
0.23713441 0.2667013 -0.15621036 0.21020159 0.19933441 -0.0071468353 -0.2512848 0.2662128
-0.13350448 0.13003299 -0.17532614 0.26284847 -0.041869804 -0.038535655 0.077426285 0.031715095
0.10003796 -0.09524879 0.24481103 -0.030497141 0.23793063 -0.14750321 0.10487965 -0.13168818
0.1291677 0.22759974 -0.19477262 0.023968449 0.12643522 -0.12888248 -0.17946643 0.1821982
00000000: c39a 0abe 520e 2d3e 9455 21bd 5a7f 7e3e
00000010: c4f8 c03b ddf4 503e e244 543e bc06 f23d
00000020: 0814 783d 3901 16be 9263 373e 3eac aebd
00000030: 0054 1abe c7dc 81be 70e2 a23c 6d5d 64be
00000040: ba67 8ebc 0b6c 80be e0da b13c 88bb 413e
00000050: 2210 37be aad1 4f3e ac7e 06be 0e9d 1d3e
00000060: 5dd3 723e 138d 883e 9cf5 1fbe 163f 573e
00000070: 521e 4c3e 0030 eabb 67a8 80be 0b4d 883e
00000080: 66b5 08be 5e27 053e b288 33be 1394 863e
00000090: ac7f 2bbd 90d7 1dbd ac91 9e3d b0e7 013d
000000a0: b4e0 cc3d cc11 c3bd beaf 7a3e 24d5 f9bc
000000b0: 16a4 733e 150b 17be 24cb d63d 44d9 06be
000000c0: 8a44 043e e80f 693e 7972 47be 7b59 c43c
000000d0: 3c78 013e c5f9 03be 0cc6 37be 2a92 3a3e

lstm.bias_hh_l0 f4 [56]
0.08946577 -0.07110296 -0.10958232 -0.057652615 0.21858118 0.07377756 0.22985548 0.26402536
0.14071071 0.20008537 -0.2147361 -0.22575773 0.10435876 -0.08982965 0.08041358 -0.18617019
-0.24636011 0.021357866 -0.0049606264 -0.19889268 0.063329875 0.06715533 0.08833447 -0.054738916
-0.19687556 -0.069818154 0.24662158 -0.07101418 0.24319634 0.2506583 -0.25122797 -0.24276647
-0.053102374 -0.006225258 -0.011654339 -0.24315874 0.24878255 0.16014928 -0.17110163 -0.2599424
0.14388049 -0.10210076 -0.2500216 -0.09825404 0.25296983 -0.18955523 0.15816972 -0.13050531
0.16281351 -0.030100867 -0.1659636 -0.030437509 0.13198826 -0.204443 0.1254723 0.09610656
00000000: d439 b73d 6e9e 91bd b26c e0bd 2625 6cbd
00000010: bfd3 5f3e b018 973d 3c5f 6b3e 552e 873e
00000020: 7816 103e 2ee3 4c3e c8e3 5bbe 092d 67be
00000030: 0cba d53d 9cf8 b7bd e0af a43d 66a3 3ebe
00000040: d345 7cbe b1f6 ae3c c08c a2bb 86aa 4bbe
00000050: 18b3 813d bc88 893d b4e8 b43d ea35 60bd
00000060: bf99 49be d2fc 8ebd 5e8a 7c3e e26f 91bd
00000070: 7608 793e 4956 803e f4a0 80be c697 78be
00000080: e081 59bd 40fd cbbb d7f1 3ebc 9bfe 78be
00000090: dac0 7e3e 2cfe 233e 4435 2fbe 2c17 85be
000000a0: 6855 133e 341a d1bd d502 80be 6a39 c9bd
000000b0: 4385 813e c41a 42be 3ef7 213e 2fa3 05be
000000c0: 96b8 263e 1896 f6bc 5df2 29be 1558 f9bc
000000d0: ee27 073e 8159 51be d07b 003e 84d3 c43d

fc.weight f4 [14, 140]
0.05694789 -0.01053166 -0.0012923566 -0.0072317375 0.030729432 -0.0044900603 0.00048254358 -0.0026209706
0.064972766 -0.0005717313 -0.014180209 -0.051434133 -0.0010392482 0.05152662 -0.04988509 -0.026316872
-0.035296727 0.017862504 0.04149124 -0.0031965224 -0.001968557 -0.013554571 -0.016980175 0.0004338289
0.025544949 -0.00055833906 0.0017889679 -0.057558972 -0.018937191 -0.040587433 0.028053403 -0.020473193
0.010190457 0.008800162 0.0044827624 0.001228769 0.022427436 0.00014237185 0.02387096 -0.08125053
-0.00024415946 0.012860056 0.012693264 -0.035902128 0.013366323 0.015986966 -0.0087711625 -0.010447097
0.00639845 -0.038631245 0.04364289 0.00037152646 -0.010043171 0.06928864 -0.0004773534 -0.04095684
0.011234659 0.0028464438 0.03863291 -0.021219885 -0.013295436 -0.0045868186 -0.012102896 0.03336167
0.07716629 -0.0002105753 0.006168332 -0.030798964 -0.0012709 -0.056235775 0.039051894 -0.04439623
-0.036010418 -0.0042383554 -0.008726945 -0.00803536 -9.183891e-05 0.02449434 -0.027769463 0.00026734825
-0.043862306 -0.08214305 -0.0018065366 -0.025503546 -0.05366336 0.03560675 0.01655637 0.02389996
0.068535134 -0.006305549 0.0024890227 0.0041703437 -0.07954172 -0.0003014568 0.02796768 -0.030443083
-0.0001512062 -0.05707431 0.0065811607 0.06991782 -0.022841511 0.0047540725 0.0009760158 0.00016462586
-0.0027668085 0.0019304617 0.017327184 -0.0004160284 0.007870111 -0.04602721 0.00071391097 0.0320547
0.021698687 0.008323649 -0.0382834 -0.015745841 0.04133534 0.01069257 -0.006637864 0.012409702
-0.043974914 8.7895554e-05 -0.0034916012 -0.0071718767 0.0011033373 0.059309557 0.03573218 -0.07155825
0.0030729237 0.005557582 0.05435823 0.009273417 -0.009258468 -0.032955486 -0.01789955 0.00039114128
-0.02501612 0.06880377 0.00096612587 0.058435738 -0.058233585 0.057336126 0.017433934 -0.0020596543
-0.056402434 -0.00866817 -0.017838195 0.039853096 0.07580378 -0.001229438 0.014983213 -0.06657566
0.00095486565 0.01861681 0.02647205 -0.043197703 -0.0150364535 -0.0028872734 -0.060374085 0.011898099
0.0074819415 -0.06679136 0.004944032 0.00070155755 -0.027608339 0.046077207 0.00013035216 0.052837495
-0.017983772 0.02018274 0.020092804 0.014782082 -0.055775903 0.0034597944 -0.0020106165 0.026854444
0.001692253 -0.00030582058 0.023823382 0.079260066 0.0015298902 0.0463858 -0.014197389 0.024138236
-0.034702346 -0.008723551 -0.012055163 0.0020245677 -0.0081581455 0.007201867 0.04891154 -0.0002714767
0.013102552 0.04018133 -0.00014411603 0.01636968 -0.019478474 -0.06161286 -0.0019103851 -0.007137453
0.017883215 0.0017160969 0.01668613 0.053814977 0.048467692 -0.0002613038 0.011680656 0.024187118
1.38036985e-05 -0.040979154 0.03868515 -0.03008198 -0.007530222 -0.020217089 0.016426703 -0.003022146
-0.00312166 -0.05432119 0.022104604 0.0001457027 -0.023219522 0.007944129 -9.3028626e-05 -0.019075565
0.015498272 -0.018585702 0.033844948 0.042106133 -0.018569397 0.0011046062 -0.017059404 -0.051463146
-0.060286976 0.00018086105 -0.010516132 0.048667878 0.0005840257 0.025685469 0.024881192 0.016914992
-0.0155538395 -0.009679191 -0.06262992 0.0047158524 0.002360355 0.047615096 0.039647385 -3.845247e-05
-0.012004181 0.014256783 -0.00014903733 0.024736546 0.038547974 -0.071502395 0.042601142 -0.01452247
00000000: 3142 693d fc8c 2cbc 4b64 a9ba 36f8 ecbb
00000010: 4abc fb3c 5b21 93bb e7fd fc39 97c4 2bbb
00000020: 7110 853d 3de0 15ba 1b54 68bc 99ac 52bd
00000030: 6237 88ba 940d 533d 4f54 4cbd 7b96 d7bc
00000040: 4d93 10bd 6354 923c b8f2 293d bf7c 51bb
00000050: e802 01bb fe13 5ebc 021a 8bbc 8873 e339
00000060: a443 d13c 805d 12ba cd7b ea3a f5c2 6bbd
00000070: 2b22 9bbc 023f 26bd 40d0 e53c 66b7 a7bc
00000080: e0f5 263c 8e2e 103c 23e4 923b a50e a13a
00000090: beb9 b73c a749 1539 088d c33c ae66 a6bd
000000a0: 8702 80b9 fcb2 523c 68f7 4f3c 1c0e 13bd
000000b0: 6cfe 5a3c 19f7 823c ecb4 0fbc 4d2a 2bbc
000000c0: 17aa d13b cc3b 1ebd e3c2 323d 70c9 c239
000000d0: 1d8c 24bc 34e7 8d3d 4a45 fab9 5cc2 27bd
000000e0: 9311 383c 678b 3a3b 8b3d 1e3d 53d5 adbc
000000f0: 1ad5 59bc 064d 96bb 3a4b 46bc 3fa6 083d
00000100: 5c09 9e3d e0cd 5cb9 b81f ca3b 1c4e fcbc
00000110: 5494 a6ba 7c57 66bd e1f4 1f3d d2d8 35bd
00000120: a97f 13bd e7e1 8abb 76fb 0ebc bea6 03bc
00000130: a499 c0b8 5ba8 c83c c97c e3bc e02a 8c39
00000140: f6a8 33bd 9e3a a8bd 4fc9 ecba d0ec d0bc
00000150: 1dce 5bbd 62d8 113d 39a1 873c d9c9 c33c
00000160: 265c 8c3d c79e cebb df1e 233b 61a7 883b
00000170: c5e6 a2bd d90c 9eb9 7a1c e53c c663 f9bc
00000180: 1b8d 1eb9 c0c6 69bd c7a6 d73b 1331 8f3d
00000190: 1f1e bbbc 0dc8 9b3b 50db 7f3a 6b9f 2c39
000001a0: 5853 35bb 8c07 fd3a bdf1 8d3c 631e dab9
000001b0: a3f1 003c 0787 3cbd c125 3b3a ca4b 033d
000001c0: 72c1 b13c ea5f 083c 0ecf 1cbd 6cfd 80bc
000001d0: 3f4f 293d e42f 2f3c 7082 d9bb 1052 4b3c
000001e0: 0a1f 34bd 9154 b838 59d3 64bb 1002 ebbb
000001f0: db9d 903a 94ee 723d e85b 123d 228d 92bd
00000200: 1b63 493b 601c b63b bca6 5e3d 88ef 173c
00000210: d4b0 17bc 55fc 06bd 14a2 92bc 1812 cd39
00000220: 9bee ccbc fee8 8c3d 9c43 7d3a 505a 6f3d
00000230: 5786 6ebd 49d9 6a3d 9cd1 8e3c 44fb 06bb
00000240: 3d06 67bd f104 0ebc 6821 92bc 003d 233d
00000250: 033f 9b3d 1825 a1ba 267c 753c d258 88bd
00000260: f34f 7a3a 4882 983c eadb d83c 13f0 30bd
00000270: 755b 76bc 6938 3dbb d14a 77bd 3ff0 423c
00000280: 132b f53b e9c9 88bd 8c01 a23b bbe8 373a
00000290: e22a e2bc 74bb 3c3d 24af 0839 216c 583d
000002a0: b452 93bc 4656 a53c aa99 a43c 8c30 723c
000002b0: 4675 64bd b8bd 623b 8cc4 03bb dafd db3c
000002c0: 97ce dd3a 8b56 a0b9 4129 c33c 1a53 a23d
000002d0: 9986 c83a 09ff 3d3d 2a9c 68bc 8dbd c53c
000002e0: 0c24 0ebd 3aed 0ebc 0583 45bc 9cae 043b
000002f0: bea9 05bc a4fd eb3b 7857 483d fc54 8eb9
00000300: 16ac 563c 2e95 243d da1d 17b9 b519 863c
00000310: 5291 9fbc c45d 7cbd e365 faba 4ce1 e9bb
00000320: d27f 923c a8ee e03a 5ab1 883c 186d 5c3d
00000330: 0f86 463d 9aff 88b9 3960 3f3c 1024 c63c
00000340: 6f96 6737 c2d9 27bd 5274 1e3d 7c6e f6bc
00000350: 15c0 f6bb 4f9e a5bc 4b91 863c 320f 46bb
00000360: c494 4cbb e57f 5ebd b714 b53c c5c7 1839
00000370: de36 bebc 1828 023c 5d18 c3b8 5c44 9cbc
00000380: 77ec 7d3c 0b41 98bc 00a1 0a3d 7b77 2c3d
00000390: d91e 98bc 6fc8 903a 2ac0 8bbc 05cb 52bd
000003a0: 7aef 76bd 85a5 3d39 db4b 2cbc f857 473d
000003b0: 4d19 193a 556a d23c a4d3 cb3c 4f91 8a3c
000003c0: 88d5 7ebc 7895 1ebc 1e44 80bd 7087 9a3b
000003d0: 30b0 1a3b 0c08 433d 4c65 223d 0648 21b8
000003e0: 2fad 44bc 4895 693c e746 1cb9 4ca4 ca3c
000003f0: 7be4 1d3d d96f 92bd 897e 2e3d a7ef 6dbc

fc.bias f4 [14]
-0.008051263 -0.04508934 -0.015243515 -0.052588545 -0.025526337 0.004619417 -0.024987552 -0.012699454
-0.054358494 0.018678606 -0.03486706 0.008170021 -0.027956558 0.026791088
00000000: 72e9 03bc 9aaf 38bd f0bf 79bc 1667 57bd
00000010: 9c1c d1bc 7a5e 973b b2b2 ccbc 5f11 50bc
00000020: 03a7 5ebd e003 993c c3d0 0ebd 8ddb 053c
00000030: 2705 e5bc fc78 db3c
